best_model.pth (torch, 7863 bytes, 7 tensors)

layer1.weight f4 [32, 11]
000000 81 c8 95 3e 24 2e ae 3d 8e 9c 12 bd fc ca 7a 3e
       0.29254535 0.085048944 -0.035793833 0.24491495
000010 a2 fd 82 bd ad ee 03 3e e7 82 74 be 97 ce 8b 3d
       -0.06396033 0.12884016 -0.2387806 0.06826513
000020 ac c1 1c 3e 58 7f 97 3c cc 28 ef 3e 1b b9 65 3d
       0.15308255 0.01849334 0.46710813 0.056084733
000030 23 a3 b1 3e 86 a7 c1 3d 03 75 03 3e cc b2 10 bd
       0.34694776 0.09455781 0.12837605 -0.035326764
000040 05 eb 63 3d 7e 9a 34 3d 1b 6d 7a bd 6b 95 fb 3d
       0.055644054 0.044092648 -0.061139207 0.122843586
000050 a1 3d aa be 64 ef 50 be f2 2f 9e bd 5a 35 4e 3d
       -0.33250144 -0.2040382 -0.077239886 0.05034385
000060 b1 d2 4d be 1d 05 12 be 52 a4 b4 bd 87 f0 c1 bc
       -0.20099904 -0.14259763 -0.08820404 -0.023674263
000070 f7 ff 91 3d 6f 1d cb be 36 08 19 3e 6b 8d 74 bd
       0.071288995 -0.39670894 0.14944538 -0.05970518
000080 0b 02 c5 3e da af 21 3d c4 e0 8b be 7e a6 34 3e
       0.3847812 0.039474346 -0.2731992 0.17641637
000090 29 76 07 bc 42 bb c2 3d 0f 40 f2 3d 09 fd 61 be
       -0.008267918 0.09508373 0.118286245 -0.22069182
0000a0 03 37 64 bd e2 3d 0a bd 67 a6 1d 3e 11 de 00 3f
       -0.055716526 -0.033750422 0.15395509 0.50338846
0000b0 35 7e 09 3e 53 ce 41 be 6e 25 00 3e 84 91 9a 3d
       0.1342705 -0.18926363 0.12514278 0.07547286
0000c0 55 e1 a4 3d 98 dc d3 bd 50 62 97 be eb bc 24 be
       0.08050791 -0.10344809 -0.29567194 -0.16087691
0000d0 52 8a 1b be 9d 3d 7a 3e fa 91 74 3e 40 66 21 3e
       -0.15189484 0.24437566 0.2388381 0.15761662
0000e0 55 97 69 bd b6 79 28 3d 65 3f 6a 3e 12 94 86 be
       -0.057029087 0.041131698 0.22875746 -0.26284844
0000f0 c2 5e 0e 3e d0 df 79 be 18 b9 65 3d b4 83 d2 bd
       0.13903335 -0.24401784 0.056084722 -0.10279027
000100 fb c4 3e 3e f0 80 1a 3e 18 56 86 3e 09 0f 3a bc
       0.1862983 0.15088248 0.2623756 -0.011356124
000110 91 de 22 be 09 07 25 be 77 71 bf 3e 59 af ea 3d
       -0.15905215 -0.16115965 0.37391254 0.11459226
000120 0b c9 d0 3e 99 50 1a be af 79 c9 be e3 9f 3d be
       0.40778384 -0.15069808 -0.3935065 -0.18518023
000130 52 fc c9 be 69 f1 33 3d 1a 90 67 3e 09 e3 90 3e
       -0.39450318 0.0439314 0.22613564 0.28298214
000140 05 3d 0d be a7 58 0e be 40 21 1d 3e f3 52 37 3d
       -0.13792808 -0.13901006 0.15344715 0.04475684
000150 0e e5 16 3e 59 f7 c2 bd a8 69 1c 3e ad 29 a2 be
       0.14735815 -0.09519834 0.1527468 -0.3167242
000160 4d ff fe bd 61 1c 14 3e 62 aa d2 3d 91 e9 9d bd
       -0.124510385 0.1446395 0.10286404 -0.07710565
000170 fe 39 6b 3e 7f 54 42 3e cd 29 52 be e3 2a 16 be
       0.22971341 0.18977545 -0.20523758 -0.14664797
000180 19 61 64 3e 5c 16 10 be 59 b9 33 be 36 80 80 be
       0.22302665 -0.1407103 -0.17551173 -0.25097817
000190 d5 30 87 bc d8 6f bf 3d 2c d8 98 3b a8 52 07 be
       -0.016502777 0.093475044 0.0046644416 -0.13215125
0001a0 02 6e 0f be f8 73 93 be 82 f3 ec bd f1 70 f5 bd
       -0.14006808 -0.28799415 -0.11569883 -0.119844325
0001b0 e5 9d f3 be 47 71 a2 be 78 d8 93 3e 23 b6 d6 bd
       -0.475814 -0.3172705 0.2887609 -0.104839586
0001c0 44 18 5e 3e 76 53 b6 be 7d 05 98 be 91 4e 02 bd
       0.21688944 -0.3561055 -0.29691687 -0.031813208
0001d0 e5 52 2a 3b f7 0d e2 be 5a 70 20 be 99 3a 8c 3c
       0.002598935 -0.4415128 -0.15667859 0.017117785
0001e0 67 df 51 3e 06 ea 7a bd 2a 52 23 be 05 d7 2f be
       0.20495377 -0.06125834 -0.15949312 -0.17171867
0001f0 66 a1 5e be 5b ed 30 be 0a bc 97 bc 76 a4 9c be
       -0.21741256 -0.17278044 -0.018522281 -0.30594224
000200 09 a4 67 3e 39 80 be bd f1 91 ba 3e 5b 1a 6f 3e
       0.22621168 -0.093018 0.3643947 0.23349898
000210 b7 06 4c be 28 35 06 3e f9 bd f1 bc f5 6d 2c be
       -0.19924437 0.13106215 -0.029509531 -0.1683882
000220 f2 4e 5d be 4f ab 82 be 45 96 82 3c 7a 12 e6 bd
       -0.21612146 -0.25521323 0.015940795 -0.11233993
000230 59 e5 66 3d 46 f4 b2 bd dc 45 bb 3e de 89 73 be
       0.056371067 -0.08737998 0.36576736 -0.23783061
000240 82 51 09 bc 6c be 9d 3d 11 48 0e 3e 46 25 6b 3e
       -0.008381249 0.07702336 0.13894679 0.22963437
000250 2a f1 71 3e 3b d7 5b be 10 46 56 3d b8 f0 03 be
       0.23627153 -0.21468823 0.05231291 -0.12884796
000260 b3 9a b6 bd b3 3c 86 be 91 82 23 3e 1e 0a 7e bd
       -0.08916225 -0.26218185 0.15967776 -0.062021367
000270 29 55 bc 3d 9b 38 01 3e ad c3 33 3d 26 80 2f be
       0.091959305 0.1261925 0.043887783 -0.17138728
000280 2e 0c dd 3e 24 b3 83 3d 61 41 14 3e b6 03 f9 be
       0.43173355 0.06430653 0.14478065 -0.48635644
000290 cb 9d 0d bd d6 53 e9 3c 60 84 9f be f5 f3 b4 3e
       -0.03457431 0.028482359 -0.31155682 0.35342374
0002a0 dc 4a a7 3d 07 ad 1b be 56 5e 0d be d7 6f d7 bd
       0.08168575 -0.15202723 -0.13805518 -0.10519379
0002b0 71 2c e4 3d 5c 4d 25 be 93 83 57 3d b6 ba 11 3e
       0.11141289 -0.16142792 0.052615713 0.14231381
0002c0 f5 15 6b be e4 0e 71 3e 06 99 92 3e 36 39 a0 be
       -0.22957595 0.23540837 0.28632373 -0.31293648
0002d0 aa 12 16 3e 59 15 1c 3e 6e 59 3e 3e da 53 fa bc
       0.14655557 0.15242518 0.18588802 -0.030557562
0002e0 8c 7d 19 3e 18 9d 6a 3e bd 71 99 bd 5a d8 c4 bd
       0.14989299 0.22911489 -0.07492397 -0.09611578
0002f0 b4 49 4f 3c b9 5f 4b 3d e0 13 8d bd f7 dd 01 bd
       0.01265185 0.049651835 -0.068885565 -0.031705823
000300 ad 25 37 3e 84 45 bb 3e c2 07 db bc 50 ea ef bd
       0.17885466 0.36576474 -0.026737098 -0.117146134
000310 3d d9 26 3d f2 6d 2b be 0a 65 ef 3d 47 72 42 3e
       0.04073452 -0.1674116 0.116891935 0.18988906
000320 65 57 2d be 5b 6a 67 bd 26 9e 89 3e 93 6a 14 bd
       -0.1692787 -0.056497913 0.2687847 -0.03623445
000330 77 3f 4e bd c3 1a d1 bd bc 20 0c be 9d 33 a5 be
       -0.050353494 -0.102101825 -0.13684362 -0.3226594
000340 6f c5 3a be 6b fa f0 3d ea 1e 32 3d 19 5d 1b 3e
       -0.18239377 0.117665134 0.043486513 0.15172233
000350 94 49 b0 be d1 76 8a be a9 96 c2 bb 74 af 2d 3e
       -0.34431136 -0.27043775 -0.0059383702 0.16961461
000360 4e a9 29 bd 48 35 8a bd 16 82 44 3e ad ea 8b 3d
       -0.041421227 -0.06748444 0.19190249 0.0683187
000370 4e 69 58 be 0a 9c c9 3e 06 34 b8 bd 20 38 a6 bd
       -0.2113392 0.3937686 -0.08994298 -0.08116174
000380 82 5b 8e be f8 d0 62 3d b3 6a 8b 3e 85 a7 4b 3e
       -0.2780419 0.05537507 0.27229843 0.19888122
000390 e3 76 36 be bb 3a fa be 7f d5 e3 be 30 61 4e 3e
       -0.17818789 -0.48872933 -0.44498822 0.20154262
0003a0 01 8a 9d 3d d2 ab 84 3e 3a f2 ad 3d 11 9d 69 3b
       0.07692338 0.25912338 0.08493467 0.0035646597
0003b0 c1 3e 35 bd 8c 38 ad be 5b 9d cc be d8 07 83 be
       -0.0442493 -0.33832204 -0.39963803 -0.25591922
0003c0 dd 6d ed 3d 79 23 a7 3a 10 df 22 bd 63 5a 8c ba
       0.115932204 0.001275166 -0.03976351 -0.001070809
0003d0 5c 89 58 bd be 48 4d be 30 e8 5d be 48 15 bf 3b
       -0.05286537 -0.2004728 -0.21670604 0.0058313943
0003e0 84 b5 4d bd 57 e0 87 3e c9 2c 98 bd 80 5c 07 bf
       -0.050221935 0.26538345 -0.07430417 -0.5287552
0003f0 fe a9 2e be 54 6e 42 be 8a c9 8c 3c 10 02 84 be
       -0.17057034 -0.189874 0.017185945 -0.25782824

layer1.bias f4 [32]
000000 96 5b a8 3e 55 68 61 3e 4c 4e a3 be 87 4f 25 3e
       0.32882375 0.22012456 -0.31895673 0.16143619
000010 60 0c 2c 3e 85 2e 09 bc eb c7 e0 bd 09 9c c2 3e
       0.16801596 -0.0083729075 -0.10975631 0.3800967
000020 26 5c 8b bd e1 9c 0c be 71 bb 3d be da c0 eb 3d
       -0.06804685 -0.1373172 -0.18528534 0.11511393
000030 a0 b9 35 3e 98 48 cc 3d 32 5c d8 3d 49 72 07 be
       0.17746592 0.09974784 0.1056446 -0.1322719
000040 8f d7 76 be a1 91 50 3d ec f7 85 3e 8a e1 47 3e
       -0.24105667 0.050920133 0.26165712 0.1951963
000050 26 71 8b bd a2 cc 58 3d e5 93 b6 bd d6 e8 50 be
       -0.06808691 0.052929528 -0.089149274 -0.2040132
000060 4f 47 07 3e 72 e8 8a 3e d3 4b 52 3e fd 82 07 be
       0.13210796 0.27130467 0.20536737 -0.13233562
000070 f2 c7 7b 3e df 0a 81 be 06 7b 75 3d a5 05 a2 3e
       0.24587992 -0.25203606 0.059931777 0.3164493

layer2.weight f4 [16, 32]
000000 60 d2 ee bc 57 16 18 3e 1e fe 29 be ac 99 ec bd
       -0.029153049 0.14852272 -0.16600844 -0.11552748
000010 5a 9d b6 3c 4a 65 9f bd 8b 82 a5 bd 51 48 b3 bd
       0.022291828 -0.07782991 -0.0808154 -0.08754028
000020 f9 d3 bf 3d 5e 31 5b 3d 22 fe 92 3c f6 24 ea bd
       0.093666025 0.053513877 0.017943446 -0.11432831
000030 8a d9 28 be ff 50 45 bd f6 ff 84 3d d9 eb ec bd
       -0.16489235 -0.048172947 0.06494133 -0.11568422
000040 3f 33 30 bd d0 2a ec 3d b7 44 d4 bc 5e 71 5a 3c
       -0.043017622 0.11531603 -0.025911672 0.013332693
000050 72 62 9d bd af 69 45 be 51 96 34 be 2f 4e 01 bd
       -0.076847926 -0.19278596 -0.17635466 -0.031568702
000060 a5 81 e0 bd 3a 70 f7 bb 27 1f 89 bd 05 7c cb bd
       -0.10962228 -0.0075512202 -0.06695395 -0.09935764
000070 aa 64 49 3e db f5 36 3d 86 ec 9e 3d ab d2 c6 bd
       0.19667307 0.04466806 0.07759957 -0.097081505
000080 71 ce ce bc cd 27 3c 3e e1 82 da bd 8a 9a 4e bc
       -0.025244923 0.18374558 -0.106694944 -0.012610087
000090 3e 27 4c 3d 12 63 90 bd 7b 69 14 3d cf 01 3d 3e
       0.04984211 -0.07050146 0.036233407 0.18457721
0000a0 e5 6f 5a 3e e0 5a 18 3e 2a a4 20 3d 3d 98 c6 bd
       0.21331747 0.14878416 0.03921906 -0.09697006
0000b0 0b 57 55 bb 98 02 b9 3d 15 9e 4d 3e 32 2b c3 3c
       -0.0032553102 0.09033698 0.20079835 0.023824308
0000c0 d8 65 25 3d 00 a4 5d 3e 3d b1 a3 bc f2 a2 58 3e
       0.04038033 0.21644592 -0.019981975 0.21155909
0000d0 62 e7 d8 3d 3a 79 59 3d 57 77 07 3e 05 6b af 3d
       0.10591008 0.053094126 0.13229118 0.08565334
0000e0 e6 4a c4 3c cf 4a 3b 3e ec 7c 05 3e b4 53 25 3e
       0.023961496 0.18290256 0.13035935 0.16145211
0000f0 40 4a 7e 3e 2a ae a6 bd 96 78 c0 bd 1e 97 66 3e
       0.24833012 -0.08138688 -0.09398 0.22518584
000100 26 bc ce 3d ef 86 a2 3c 2b 43 a2 bc 05 d0 3f be
       0.1009448 0.019839732 -0.019807419 -0.18731697
000110 b1 2f 1b be ee 94 ad 3c 1d 47 3c 3e 05 50 04 3e
       -0.15154912 0.02118918 0.18386503 0.1292115
000120 a1 7b bf 3c ba ee 8b 3e ff 9e 98 bd 3f 9b 2f be
       0.02337438 0.2733057 -0.07452201 -0.17149065
000130 6a 01 ef 3c 78 e8 ac 3d 2b 0c 33 3e ee fe 16 be
       0.029175479 0.084427774 0.1748511 -0.14745685
000140 f4 fc 30 3e 5e 5f c6 3c ca 97 96 ba c6 12 e6 bb
       0.17283994 0.024215396 -0.0011489328 -0.007021281
000150 cb 3e a8 3e 9d a3 34 3e 3f 22 a4 3e 5a 69 42 3e
       0.32860407 0.17640539 0.32057378 0.18985501
000160 2e 58 83 3d 5d 48 59 bd 0c 43 10 3d bb 88 45 3c
       0.06413303 -0.053047527 0.03522019 0.012056525
000170 37 2d 75 bd eb 6b a6 bd 30 65 e0 39 3e f3 aa bd
       -0.059857573 -0.081260525 0.000428 -0.08347176
000180 c5 67 22 3d 65 43 ff 3c 80 62 dc bd a3 e0 ec 3c
       0.039649744 0.031160066 -0.10760975 0.028915709
000190 8f 72 78 bd f1 45 03 be 21 7c 7c 3e 85 bb f8 3c
       -0.060656127 -0.1281965 0.24656726 0.030362854
0001a0 19 e4 54 3e 59 2e 83 3e 96 ad 5a bd 5e 58 a0 bc
       0.20790137 0.25621298 -0.0533882 -0.019573387
0001b0 52 10 e1 3c e9 94 ff 3c 71 9d cb 3d fb 35 2f bb
       0.027473602 0.031198936 0.09942139 -0.0026735056
0001c0 22 35 19 3e fe 7a 7d 3e 52 80 b6 3d 47 63 e4 bc
       0.14961675 0.24753949 0.08911194 -0.02787937
0001d0 46 f5 fa 3d 5e c8 a0 bc 87 50 33 3e fb 3c 5b 3e
       0.122538134 -0.019626793 0.17511187 0.21409981
0001e0 e1 98 64 3d f5 ca 05 3d 22 4a 28 bd 34 31 3f be
       0.05580986 0.032664258 -0.041086324 -0.18671113
0001f0 d3 8a f6 bc 4d 39 37 3c 60 ef 86 3d 4e 22 3c be
       -0.030095493 0.011183095 0.06588626 -0.18372461
000200 97 64 50 3c dd d5 ae bc 68 71 06 be bf db 3a be
       0.012719295 -0.021342212 -0.13129199 -0.18247889
000210 6c 69 a1 3d 51 3f 54 be 36 93 39 3e 26 55 ad 3b
       0.07881436 -0.20727278 0.18122563 0.0052896915
000220 cb b8 5b 3d 0e db 34 3e 87 ca fd bd c5 f3 d2 3c
       0.05364303 0.17661688 -0.12392145 0.025751004
000230 d0 fd 06 3e dc 64 e6 bd 3f 89 b7 3d 1d 84 4c 3b
       0.1318276 -0.11249706 0.089617245 0.0031206675
000240 68 18 a8 3d 02 9e 22 3d af 46 e8 3d ea a2 96 bd
       0.0820778 0.03970147 0.11341607 -0.07355292
000250 fe 63 a2 3d 22 34 17 3e 15 98 80 3e 4b 3f 9a 3a
       0.07929228 0.14765981 0.2511603 0.001176813
000260 da dd 58 be 1c 70 23 bd 3a 44 2f bd 84 9c 4d 3d
       -0.2117838 -0.039901838 -0.042789675 0.050198093
000270 11 5e 4a be fe 92 29 bd db 1d 27 bd 47 f3 87 bd
       -0.19762446 -0.04139995 -0.040799957 -0.06638198
000280 6f 00 77 3e 97 f8 55 bd 55 3c 05 3e 29 dd 8a 3e
       0.24121259 -0.052239027 0.13011296 0.27121857
000290 90 23 8a 3e 82 fc c2 3c 45 89 1a be 36 33 98 3d
       0.26980257 0.023802046 -0.15091427 0.07431643
0002a0 2e b8 ad bd eb 7b 05 3d 01 c1 11 3e 51 2c 84 3d
       -0.08482395 0.03258888 0.14233781 0.06453765
0002b0 24 10 d4 3d 4b 4d 8e 3c 70 e0 48 3d 32 e3 75 3e
       0.10354641 0.01737084 0.049042165 0.2401245
0002c0 83 61 61 3d 1f ac 04 3e 75 5a 9a bd 1c 15 d3 bd
       0.055024635 0.12956284 -0.075367846 -0.10306761
0002d0 b3 42 4f be 09 10 87 bd 84 6b 92 be b0 e1 01 be
       -0.20240287 -0.06594855 -0.28597653 -0.12683749
0002e0 6e 13 6b bc 25 3d 0a 3c 89 38 1e be cc b7 14 bd
       -0.014347894 0.00843743 -0.15451254 -0.036308095
0002f0 38 11 c1 bc 68 00 da 3d 9a c4 14 3e 85 1e 08 3e
       -0.02356778 0.10644609 0.14528123 0.13292892
000300 60 3b 58 bd 9f 39 67 3e d2 dc a2 bd 77 08 d1 bd
       -0.052791 0.22580574 -0.079522744 -0.10206693
000310 52 29 7a 3d 2e 10 50 be 75 d2 22 3e 8a 1b 3d 3e
       0.061074562 -0.20318672 0.15900595 0.18467537
000320 c1 c6 a6 3d 70 3a 27 3e 62 f4 43 be e2 51 d0 bd
       0.08143378 0.16330886 -0.19136193 -0.10171868
000330 1d ef 71 3d d6 72 8f 3d 5b 34 50 3e 19 ab 0d 3e
       0.059065927 0.07004325 0.20332472 0.138348
000340 bc 08 7d bc 38 c1 bf 3d d9 c3 28 3d 95 5e 27 bd
       -0.015443977 0.093630254 0.0412024 -0.040861685
000350 bb e9 11 3e b0 c7 ef bd b6 41 8e 3e b0 fd 0c 3e
       0.14249317 -0.11708009 0.27784508 0.13768649
000360 86 6d e4 bd 00 21 aa 3c 4e 7f b1 bb ec 48 1b be
       -0.111537024 0.020767689 -0.005416787 -0.15164536
000370 d6 a6 ff bc b8 04 03 be 81 12 ce bd 30 ca e0 bd
       -0.031207483 -0.12794769 -0.10062123 -0.10976064
000380 55 5f 72 3e 30 5f 46 3e 82 74 01 3e f0 96 a0 3d
       0.23669179 0.19372249 0.126421 0.07841289
000390 aa db d3 3c 0f 77 6b 3e 34 ea f7 3d f3 6b 26 3d
       0.02586158 0.22994636 0.121052176 0.040630292
0003a0 0a 58 e2 3c da e3 30 be 08 c1 c7 3d 0e b6 a8 3e
       0.02762987 -0.17274418 0.09753615 0.32951397
0003b0 cd 56 26 bc b9 f6 5b 3d 13 de c7 bd 8e a3 9c bb
       -0.010152531 0.05370209 -0.09759154 -0.0047802394
0003c0 2f 89 c7 bc a4 68 86 bd a0 fa 3c 3c 20 d3 06 3e
       -0.024357406 -0.06562927 0.011534363 0.13166475
0003d0 a5 06 0f be 6a 36 02 3e 59 b1 37 be cc f6 72 bd
       -0.13967378 0.1271607 -0.17938747 -0.059317395
0003e0 9f d8 31 3e 71 79 96 3e ea 52 17 bd 10 d4 e0 3a
       0.1736779 0.29389527 -0.036944307 0.0017153043
0003f0 b7 51 2e bd be 3e 2a bd 4f 3e e4 bd 1b 98 ad 3d
       -0.042558398 -0.041563742 -0.11144697 0.084762774

layer2.bias f4 [16]
000000 c0 cf a8 bd 26 56 a1 3d ad e2 06 3d 5d 63 bd bb
       -0.0824275 0.0787776 0.03293102 -0.0057796673
000010 42 0a 13 3e eb 84 47 3e a3 80 53 3e 7b 2c 03 3e
       0.14359382 0.19484298 0.2065454 0.12809937
000020 4b e5 af 3d 4a 87 21 3e 80 b7 95 bd d0 dc a4 3c
       0.08588656 0.15774265 -0.073103905 0.020124823
000030 2e 7b b7 bc cd 6b bc bd 83 73 43 bd f1 33 35 3e
       -0.022397604 -0.09200249 -0.047717582 0.17695595

layer3.weight f4 [8, 16]
000000 a4 23 2d 3e 0b ca db 3d 2f 78 fe 3d 59 3b 43 be
       0.16908127 0.10731896 0.12425267 -0.19065608
000010 32 10 84 bd 12 90 1f 3e 66 fa ef bd fc b1 e8 3c
       -0.064484015 0.15582302 -0.117176816 0.028405182
000020 44 05 56 be 24 58 d1 3d bf 0f fe bd 65 8f 7a bb
       -0.20900446 0.102218896 -0.12405347 -0.0038232442
000030 79 4a 42 3e db 7e 11 be f2 27 85 bc aa 71 8d 3d
       0.18973722 -0.14208548 -0.016254399 0.06906445
000040 6b 3b 27 bc e9 7b 57 3d b0 49 d0 3e 08 1f 82 3d
       -0.010207037 0.052608404 0.4068122 0.06353575
000050 88 15 65 bd fc f4 63 be a8 4b ad 3d 65 b2 31 be
       -0.055928737 -0.22261423 0.08461696 -0.17353208
000060 ec 90 39 be 1c ed 94 3c 27 86 06 bd 23 24 8b bd
       -0.1812169 0.018179469 -0.03284278 -0.06794002
000070 46 38 89 bd 6f a8 ef 3d 69 41 29 be 76 bb 99 3d
       -0.067001864 0.11702048 -0.16528858 0.075064585
000080 95 3b 8e be ec c0 12 3e b9 7a 42 be 07 22 60 be
       -0.27779832 0.14331406 -0.18992127 -0.2188798
000090 ad bf 3f be f5 46 6c 3e e1 99 22 be 5f f3 45 3d
       -0.18725462 0.23073943 -0.15879013 0.0483278
0000a0 ae 84 a6 3e 92 f4 80 3e c3 37 80 3e e9 07 53 be
       0.32523102 0.25186592 0.25042543 -0.20608486
0000b0 fd 77 2d be f4 52 14 be 9d 91 a2 3e ae 61 1e 3b
       -0.16940303 -0.14484769 0.3175172 0.0024167108
0000c0 c7 50 76 be 68 f8 ca 3c 10 c5 50 be 13 8a c6 bd
       -0.24054252 0.024776652 -0.20387673 -0.09694304
0000d0 02 0a bd bd fc 44 50 3e 9a e6 57 3b 8f e2 51 3d
       -0.092304245 0.20338815 0.0032943846 0.051241454
0000e0 b7 9f a9 3d 94 fe 8f bd c7 9e 41 3e 56 f9 ea 3c
       0.08282416 -0.07030979 0.18908225 0.028683346
0000f0 ab a8 f2 3c 08 ea 2a be 45 2f 89 3e f0 55 bd bd
       0.029621443 -0.16690838 0.26793876 -0.09244907
000100 66 25 c9 3b 6c 27 5e 3e ae 1f c7 3e 36 11 dd 3e
       0.0061384914 0.21694726 0.38891357 0.43177193
000110 14 31 5a 3e 1d a6 ce bd 36 dd 99 3e 1c 49 03 3e
       0.21307784 -0.10090277 0.30051583 0.12820858
000120 8f 53 79 be 2b 7b 23 bd 6a 62 53 be 9c 82 00 3e
       -0.24348281 -0.039912384 -0.2064301 0.12549824
000130 3e 02 67 3e c5 fd 14 3e 95 92 64 bd 03 5a 8e 3e
       0.22559449 0.1454993 -0.055803854 0.27803048
000140 c5 fd 95 bc bc 90 69 be fe 3c 40 3e 42 54 06 be
       -0.018309483 -0.22809118 0.18773267 -0.1311808
000150 a3 9e 16 bd 64 96 93 3c 21 c5 22 bd 15 ee 5f be
       -0.03677238 0.018016048 -0.039738778 -0.21868165
000160 1d 3a a5 3d bf f4 01 be e6 df eb bd 46 01 87 3d
       0.08067725 -0.1269102 -0.115173146 0.0659204
000170 7a 2b 98 bd 16 2f 04 be fc b3 f8 bd 40 86 e7 bd
       -0.074301675 -0.12908587 -0.12143704 -0.11304903
000180 3d ba 07 be b9 e2 b7 3c 5f c9 f6 3b 56 7e 60 be
       -0.13254638 0.022446977 0.0075313295 -0.21923193
000190 27 c9 27 be c3 6d ff 3d 10 96 0d 3b 9b 75 9a 3e
       -0.16385327 0.12472107 0.0021604337 0.3016785
0001a0 39 d8 86 bc 3e 4f 57 3e 9b 24 86 3e ac cb 1b 3e
       -0.016460525 0.21026322 0.26199803 0.15214413
0001b0 40 e9 77 be 2f d5 23 be 0f 8e b6 bd ac b1 19 be
       -0.24210072 -0.15999292 -0.08913814 -0.15009183
0001c0 ff 99 e4 3d 1a ed 83 3a 9b 14 50 3c 79 65 60 be
       0.11162185 0.0010065169 0.012700225 -0.21913709
0001d0 95 16 f1 3c db c9 d0 bd 53 c0 97 3d de 73 e0 bc
       0.029429713 -0.10194751 0.0740973 -0.027399
0001e0 c0 c8 05 3d 8b 3c 47 be 9c db 5d 3d c3 31 84 3e
       0.032662153 -0.19456689 0.054164514 0.25819215
0001f0 01 bc e0 3d 17 b2 46 be 64 84 f8 3d e7 da 89 bd
       0.10973359 -0.19403873 0.121346265 -0.067312054

layer3.bias f4 [8]
000000 6d 03 5d be 84 bf 75 3e 9b 73 13 3e ad 1e c5 3d
       -0.21583338 0.23998839 0.14399569 0.096249916
000010 db 00 8c 3b 9a e1 09 be 45 a7 39 3e 47 4b cf 3d
       0.004272563 -0.13464966 0.18130215 0.1012178

output.weight f4 [1, 8]
000000 05 fc 3d 3d 0a 0b 90 be c4 a8 06 3f 81 9d a6 3d
       0.046382923 -0.28133422 0.52601266 0.0813551
000010 d6 17 dc be 19 72 0f be 78 7a 07 3f b2 64 81 3c
       -0.42986935 -0.14008369 0.5292125 0.015795086
